notebooks/02-ANN-Artificial-Neural-Networks/IrisDatasetModel.pt (torch_old, 1616 bytes, 6 tensors)

fc1.weight f4 [8, 4]
0.05963862 0.059092402 -0.40854317 -0.2899968 -0.49280542 -0.4610381 0.4928946 0.41311312
0.6931717 0.8955744 -0.54419583 -0.97827995 0.2838191 -0.16248468 -0.0037225336 0.15703098
0.26348442 -0.28629726 -0.19336843 -0.46144652 0.10569614 -0.36560392 0.73818344 0.7809381
0.69426435 0.0761404 0.7209273 0.24191953 0.0003629246 -0.5917511 1.0473202 1.1918373
00000000: a047 743d e00a 723d 922c d1be 767a 94be
00000010: fe50 fcbe 300d ecbe ae5c fc3e 9083 d33e
00000020: b373 313f 5d44 653f 6b50 0bbf 8e70 7abf
00000030: bd50 913e 6262 26be c0f5 73bb bbcc 203e
00000040: 6ee7 863e 8e95 92be 6002 46be b842 ecbe
00000050: 3877 d83d 7030 bbbe 97f9 3c3f 8feb 473f
00000060: 4fbb 313f 7fef 9b3d b18e 383f c1b9 773e
00000070: ea46 be39 007d 17bf 970e 863f 208e 983f

fc1.bias f4 [8]
-0.19955981 0.30648786 1.1514752 -0.37854296 -0.19502628 -0.038463984 0.7089334 -0.5141119
00000000: 6859 4cbe faeb 9c3e 8a63 933f 62d0 c1be
00000010: f8b4 47be 698c 1dbd a97c 353f d69c 03bf

fc2.weight f4 [9, 8]
0.108570606 0.26186547 0.7317939 -0.24339393 -0.14542925 0.13009329 0.25785515 -0.51789427
-0.11996232 0.34310558 -0.22143883 0.2274352 0.20515862 -0.33907455 -0.3529318 0.117369324
0.1734691 0.31338856 -0.41059357 0.3158326 -0.25126404 0.8407356 0.10254281 0.8723775
0.038330734 0.21839151 0.7158191 -0.0063973456 0.003671527 -0.07980504 0.33578688 -0.4440661
-0.17858298 -0.16654335 -0.19217488 0.30105212 0.19999334 0.14558119 -0.10598895 -0.28685975
0.0752368 0.32666805 -0.39538363 -0.31821978 -0.03134483 0.6004013 0.5420953 0.7295094
-0.24932823 -0.33342195 -0.42325568 0.025221653 0.20277908 0.82136226 0.54233134 0.33529893
-0.34389338 0.1731421 0.980058 0.15051065 -0.17798062 -0.22816223 0.497253 -0.64045984
-0.2018016 0.06481612 -0.40631622 -0.19969882 -0.04575339 -0.1442999 0.085630186 -0.05256887
00000000: 445a de3d 3b13 863e d856 3b3f 423c 79be
00000010: 68eb 14be 2d37 053e 9705 843e b894 04bf
00000020: ceae f5bd 89ab af3e dcc0 62be c6e4 683e
00000030: 1a15 523e 2e9b adbe 7ab3 b4be 545f f03d
00000040: e2a1 313e 7774 a03e 5239 d2be d0b4 a13e
00000050: aea5 80be 733a 573f f701 d23d 2254 5f3f
00000060: b000 1d3d 06a2 5f3e ec3f 373f d3a0 d1bb
00000070: 009e 703b d370 a3bd 42ec ab3e a25c e3be
00000080: 75de 36be 578a 2abe 7ec9 44be 8123 9a3e
00000090: 0ecb 4c3e 3c13 153e bc10 d9bd 48df 92be
000000a0: c015 9a3d 0941 a73e b96f cabe b4ed a2be
000000b0: 7063 00bd e6b3 193f c2c6 0a3f 21c1 3a3f
000000c0: e64f 7fbe 48b6 aabe f8b4 d8be a49d ce3c
000000d0: 52a5 4f3e cc44 523f 3ad6 0a3f 4dac ab3e
000000e0: cb12 b0be 2a4c 313e 15e5 7a3f 771f 1a3e
000000f0: 8d40 36be 5ca3 69be f297 fe3e 2df5 23bf
00000100: 14a5 4ebe 50be 843d ae08 d0be d97d 4cbe
00000110: e867 3bbd 5ac3 13be e15e af3d 7552 57bd

fc2.bias f4 [9]
0.042608302 -0.03468299 -0.30453417 0.72292596 0.019907147 -0.5979819 -0.20859796 0.71956056
0.0070684426
00000000: 0b86 2e3d c00f 0ebd e7eb 9bbe ad11 393f
00000010: 5014 a33c 5815 19bf b49a 55be 1f35 383f
00000020: 659e e73b

out.weight f4 [3, 9]
0.29544944 0.09016964 -0.44935858 0.7294283 -0.091077015 -0.5592254 -0.29009017 0.5196204
0.114012375 0.30452654 0.29276177 0.0790523 0.28910732 0.11558184 0.11572423 0.34926367
0.19781148 0.16414192 -0.7652039 0.02928248 0.8031332 -0.9784816 0.06415725 0.8521517
0.5484626 -0.80358046 0.025569968
00000000: 2645 973e dcaa b83d 5412 e6be d0bb 3a3f
00000010: 9686 babd 6529 0fbf b386 94be d805 053f
00000020: 527f e93d e7ea 9b3e dfe4 953e 2ce6 a13d
00000030: e005 943e 2cb6 ec3d d300 ed3d b0d2 b23e
00000040: 188f 4a3e d214 283e 67e4 43bf d0e1 ef3c
00000050: 239a 4d3f c57d 7abf e064 833d 9d26 5a3f
00000060: 0c68 0c3f 73b7 4dbf 1c78 d13c

out.bias f4 [3]
0.5283636 0.27100924 -0.72475183
00000000: d642 073f b9c1 8a3e 5689 39bf
